…
s://localhost:8080/"},"id":"v4DUTJCxIEkR","executionInfo":{"status":"ok","timestamp":1659808591988,"user_tz":480,"elapsed":2646,"user":{"displayName":"Khalid Mansoor","userId":"07489331363891548163"}},"outputId":"321dbc4d-472e-4d88-b363-7cbd61b8b33d"},"execution_count":null,"outputs":[{"output_type":"stream","name":"stdout","text":["Model: \"sequential\"\n","_________________________________________________________________\n"," Layer (type)                Output Shape              Param #   \n","=================================================================\n"," conv2d (Conv2D)             (None, 224, 224, 256)     2560      \n","                                                                 \n"," activation (Activation)     (None, 224, 224, 256)     0         \n","                                                                 \n"," max_pooling2d (MaxPooling2D  (None, 112, 112, 256)    0         \n"," )                                                               \n","                                                                 \n"," batch_normalization (BatchN  (None, 112, 112, 256)    448       \n"," ormalization)                                                   \n","                                                                 \n"," conv2d_1 (Conv2D)           (None, 112, 112, 128)     295040    \n","                                                                 \n"," activation_1 (Activation)   (None, 112, 112, 128)     0         \n","                                                                 \n"," max_pooling2d_1 (MaxPooling  (None, 56, 56, 128)      0         \n"," 2D)                                                             \n","                                                                 \n"," batch_normalization_1 (Batc  (None, 56, 56, 128)      224       \n"," hNormalization)                                                 \n","                                                                 \n"," conv2d_2 (Conv2D)           (None, 56, 56, 64)        73792     \n","                                                                 \n"," activation_2 (Activation)   (None, 56, 56, 64)        0         \n","                                                                 \n"," max_pooling2d_2 (MaxPooling  (None, 28, 28, 64)       0         \n"," 2D)                                                             \n","                                                                 \n"," batch_normalization_2 (Batc  (None, 28, 28, 64)       112       \n"," hNormalization)                                                 \n","                                                                 \n"," conv2d_3 (Conv2D)           (None, 28, 28, 64)        36928     \n","                                                                 \n"," activation_3 (Activation)   (None, 28, 28, 64)        0         \n","                                                                 \n"," max_pooling2d_3 (MaxPooling  (None, 14, 14, 64)       0         \n"," 2D)                                                             \n","                                                                 \n"," batch_normalization_3 (Batc  (None, 14, 14, 64)       56        \n"," hNormalization)                                                 \n","                                                                 \n"," conv2d_4 (Conv2D)           (None, 14, 14, 16)        9232      \n","                                                                 \n"," activation_4 (Activation)   (None, 14, 14, 16)        0         \n","                                                                 \n"," max_pooling2d_4 (MaxPooling  (None, 7, 7, 16)         0         \n"," 2D)                                                             \n","                                                                 \n"," batch_normalization_4 (Batc  (None, 7, 7, 16)         28        \n"," hNormalization)                                                 \n","                                                                 \n"," flatten (Flatten)           (None, 784)               0         \n","                                                                 \n"," dropout (Dropout)           (None, 784)               0         \n","                                                                 \n"," dense (Dense)               (None, 64)                50240     \n","                                                                 \n"," activation_5 (Activation)   (None, 64)                0         \n","                                                                 \n"," dropout_1 (Dropout)         (None, 64)                0         \n","                                                                 \n"," dense_1 (Dense)             (None, 1)                 65        \n","                                                                 \n"," activation_6 (Activation)   (None, 1)                 0         \n","                                                                 \n","=================================================================\n","Total params: 468,725\n","Trainable params: 468,291\n","Non-trainable params: 434\n","_________________________________________________________________\n"]}]},{"cell_type":"code","source":["history = model.fit(datagen.flow(X_train, y_train, batch
…
